…
> loss_list <- list()

> loss_weights <- list()

> metrics_list <- list()

> for (i in df_fn_grp_chars$fn_grp) {
+     temp_df_fn_grps <- df_fn_grp_chars[df_fn_grp_chars$fn_grp == 
+         i, ]
+     output[[i]] <- layer_de .... [TRUNCATED] 

> model <- keras_model(inputs = input, outputs = output)

> summary(model)
Model: "functional"
┏━━━━━━━━━━━━━━━━━━━━━━━┳━━━━━━━━━━━━━━━━━━━┳━━━━━━━━━━━━━┳━━━━━━━━━━━━━━━━━━━━┓
┃ Layer (type)          ┃ Output Shape      ┃     Param # ┃ Connected to       ┃
┡━━━━━━━━━━━━━━━━━━━━━━━╇━━━━━━━━━━━━━━━━━━━╇━━━━━━━━━━━━━╇━━━━━━━━━━━━━━━━━━━━┩
│ input_layer           │ (None, 13)        │           0 │ -                  │
│ (InputLayer)          │                   │             │                    │
├───────────────────────┼───────────────────┼─────────────┼────────────────────┤
│ dense (Dense)         │ (None, 128)       │       1,792 │ input_layer[0][0]  │
├───────────────────────┼───────────────────┼─────────────┼────────────────────┤
│ dense_1 (Dense)       │ (None, 128)       │      16,512 │ dense[0][0]        │
├───────────────────────┼───────────────────┼─────────────┼────────────────────┤
│ dense_2 (Dense)       │ (None, 128)       │      16,512 │ dense_1[0][0]      │
├───────────────────────┼───────────────────┼─────────────┼────────────────────┤
│ dense_3 (Dense)       │ (None, 128)       │      16,512 │ dense_2[0][0]      │
├───────────────────────┼───────────────────┼─────────────┼────────────────────┤
│ dense_4 (Dense)       │ (None, 16)        │       2,064 │ dense_3[0][0]      │
├───────────────────────┼───────────────────┼─────────────┼────────────────────┤
│ dense_5 (Dense)       │ (None, 3)         │         387 │ dense_3[0][0]      │
├───────────────────────┼───────────────────┼─────────────┼────────────────────┤
│ dense_6 (Dense)       │ (None, 4)         │         516 │ dense_3[0][0]      │
└───────────────────────┴───────────────────┴─────────────┴────────────────────┘
 Total params: 54,295 (212.09 KB)
 Trainable params: 54,295 (212.09 KB)
 Non-trainable params: 0 (0.00 B)

> model %>% compile(loss = loss_list, loss_weights = loss_weights, 
+     optimizer = optimizer_adam(), metrics = metrics_list)

> history <- model %>% fit(x = xtrain_scaled, y = ytrain_scaled_reshape, 
…
