…
> loss_list <- list()

> loss_weights <- list()

> metrics_list <- list()

> for (i in df_fn_grp_chars$fn_grp) {
+     temp_df_fn_grps <- df_fn_grp_chars[df_fn_grp_chars$fn_grp == 
+         i, ]
+     output[[i]] <- layer_de .... [TRUNCATED] 

> model <- keras_model(inputs = input, outputs = output)

> summary(model)
Model: "functional"
┏━━━━━━━━━━━━━━━━━━━━━━━┳━━━━━━━━━━━━━━━━━━━┳━━━━━━━━━━━━━┳━━━━━━━━━━━━━━━━━━━━┓
┃ Layer (type)          ┃ Output Shape      ┃     Param # ┃ Connected to       ┃
┡━━━━━━━━━━━━━━━━━━━━━━━╇━━━━━━━━━━━━━━━━━━━╇━━━━━━━━━━━━━╇━━━━━━━━━━━━━━━━━━━━┩
│ input_layer           │ (None, 13)        │           0 │ -                  │
│ (InputLayer)          │                   │             │                    │
├───────────────────────┼───────────────────┼─────────────┼────────────────────┤
│ dense (Dense)         │ (None, 64)        │         896 │ input_layer[0][0]  │
├───────────────────────┼───────────────────┼─────────────┼────────────────────┤
│ dense_1 (Dense)       │ (None, 64)        │       4,160 │ dense[0][0]        │
├───────────────────────┼───────────────────┼─────────────┼────────────────────┤
│ dense_2 (Dense)       │ (None, 16)        │       1,040 │ dense_1[0][0]      │
├───────────────────────┼───────────────────┼─────────────┼────────────────────┤
│ dense_3 (Dense)       │ (None, 3)         │         195 │ dense_1[0][0]      │
├───────────────────────┼───────────────────┼─────────────┼────────────────────┤
│ dense_4 (Dense)       │ (None, 4)         │         260 │ dense_1[0][0]      │
└───────────────────────┴───────────────────┴─────────────┴────────────────────┘
 Total params: 6,551 (25.59 KB)
 Trainable params: 6,551 (25.59 KB)
 Non-trainable params: 0 (0.00 B)

> model %>% compile(loss = loss_list, loss_weights = loss_weights, 
+     optimizer = optimizer_adam(), metrics = metrics_list)

> history <- model %>% fit(x = xtrain_scaled, y = ytrain_scaled_reshape, 
…
> loss_list <- list()

> loss_weights <- list()

> metrics_list <- list()

> for (i in df_fn_grp_chars$fn_grp) {
+     temp_df_fn_grps <- df_fn_grp_chars[df_fn_grp_chars$fn_grp == 
+         i, ]
+     output[[i]] <- layer_de .... [TRUNCATED] 

> model <- keras_model(inputs = input, outputs = output)

> summary(model)
Model: "functional"
┏━━━━━━━━━━━━━━━━━━━━━━━┳━━━━━━━━━━━━━━━━━━━┳━━━━━━━━━━━━━┳━━━━━━━━━━━━━━━━━━━━┓
┃ Layer (type)          ┃ Output Shape      ┃     Param # ┃ Connected to       ┃
┡━━━━━━━━━━━━━━━━━━━━━━━╇━━━━━━━━━━━━━━━━━━━╇━━━━━━━━━━━━━╇━━━━━━━━━━━━━━━━━━━━┩
│ input_layer           │ (None, 13)        │           0 │ -                  │
│ (InputLayer)          │                   │             │                    │
├───────────────────────┼───────────────────┼─────────────┼────────────────────┤
│ dense (Dense)         │ (None, 64)        │         896 │ input_layer[0][0]  │
├───────────────────────┼───────────────────┼─────────────┼────────────────────┤
│ dropout (Dropout)     │ (None, 64)        │           0 │ dense[0][0]        │
├───────────────────────┼───────────────────┼─────────────┼────────────────────┤
│ dense_1 (Dense)       │ (None, 64)        │       4,160 │ dropout[0][0]      │
├───────────────────────┼───────────────────┼─────────────┼────────────────────┤
│ dropout_1 (Dropout)   │ (None, 64)        │           0 │ dense_1[0][0]      │
├───────────────────────┼───────────────────┼─────────────┼────────────────────┤
│ dense_2 (Dense)       │ (None, 64)        │       4,160 │ dropout_1[0][0]    │
├───────────────────────┼───────────────────┼─────────────┼────────────────────┤
│ dropout_2 (Dropout)   │ (None, 64)        │           0 │ dense_2[0][0]      │
├───────────────────────┼───────────────────┼─────────────┼────────────────────┤
│ dense_3 (Dense)       │ (None, 64)        │       4,160 │ dropout_2[0][0]    │
├───────────────────────┼───────────────────┼─────────────┼────────────────────┤
│ dropout_3 (Dropout)   │ (None, 64)        │           0 │ dense_3[0][0]      │
├───────────────────────┼───────────────────┼─────────────┼────────────────────┤
│ dense_4 (Dense)       │ (None, 16)        │       1,040 │ dropout_3[0][0]    │
├───────────────────────┼───────────────────┼─────────────┼────────────────────┤
│ dense_5 (Dense)       │ (None, 3)         │         195 │ dropout_3[0][0]    │
├───────────────────────┼───────────────────┼─────────────┼────────────────────┤
│ dense_6 (Dense)       │ (None, 4)         │         260 │ dropout_3[0][0]    │
└───────────────────────┴───────────────────┴─────────────┴────────────────────┘
 Total params: 14,871 (58.09 KB)
 Trainable params: 14,871 (58.09 KB)
 Non-trainable params: 0 (0.00 B)

> model %>% compile(loss = loss_list, loss_weights = loss_weights, 
+     optimizer = optimizer_adam(), metrics = metrics_list)

> history <- model %>% fit(x = xtrain_scaled, y = ytrain_scaled_reshape, 
…
> loss_list <- list()

> loss_weights <- list()

> metrics_list <- list()

> for (i in df_fn_grp_chars$fn_grp) {
+     temp_df_fn_grps <- df_fn_grp_chars[df_fn_grp_chars$fn_grp == 
+         i, ]
+     output[[i]] <- layer_de .... [TRUNCATED] 

> model <- keras_model(inputs = input, outputs = output)

> summary(model)
Model: "functional"
┏━━━━━━━━━━━━━━━━━━━━━━━┳━━━━━━━━━━━━━━━━━━━┳━━━━━━━━━━━━━┳━━━━━━━━━━━━━━━━━━━━┓
┃ Layer (type)          ┃ Output Shape      ┃     Param # ┃ Connected to       ┃
┡━━━━━━━━━━━━━━━━━━━━━━━╇━━━━━━━━━━━━━━━━━━━╇━━━━━━━━━━━━━╇━━━━━━━━━━━━━━━━━━━━┩
│ input_layer           │ (None, 13)        │           0 │ -                  │
│ (InputLayer)          │                   │             │                    │
├───────────────────────┼───────────────────┼─────────────┼────────────────────┤
│ dense (Dense)         │ (None, 128)       │       1,792 │ input_layer[0][0]  │
├───────────────────────┼───────────────────┼─────────────┼────────────────────┤
│ dense_1 (Dense)       │ (None, 128)       │      16,512 │ dense[0][0]        │
├───────────────────────┼───────────────────┼─────────────┼────────────────────┤
│ dense_2 (Dense)       │ (None, 128)       │      16,512 │ dense_1[0][0]      │
├───────────────────────┼───────────────────┼─────────────┼────────────────────┤
│ dense_3 (Dense)       │ (None, 128)       │      16,512 │ dense_2[0][0]      │
├───────────────────────┼───────────────────┼─────────────┼────────────────────┤
│ dense_4 (Dense)       │ (None, 16)        │       2,064 │ dense_3[0][0]      │
├───────────────────────┼───────────────────┼─────────────┼────────────────────┤
│ dense_5 (Dense)       │ (None, 3)         │         387 │ dense_3[0][0]      │
├───────────────────────┼───────────────────┼─────────────┼────────────────────┤
│ dense_6 (Dense)       │ (None, 4)         │         516 │ dense_3[0][0]      │
└───────────────────────┴───────────────────┴─────────────┴────────────────────┘
 Total params: 54,295 (212.09 KB)
 Trainable params: 54,295 (212.09 KB)
 Non-trainable params: 0 (0.00 B)

> model %>% compile(loss = loss_list, loss_weights = loss_weights, 
+     optimizer = optimizer_adam(), metrics = metrics_list)

> history <- model %>% fit(x = xtrain_scaled, y = ytrain_scaled_reshape, 
…
> loss_list <- list()

> loss_weights <- list()

> metrics_list <- list()

> for (i in df_fn_grp_chars$fn_grp) {
+     temp_df_fn_grps <- df_fn_grp_chars[df_fn_grp_chars$fn_grp == 
+         i, ]
+     output[[i]] <- layer_de .... [TRUNCATED] 

> model <- keras_model(inputs = input, outputs = output)

> summary(model)
Model: "functional"
┏━━━━━━━━━━━━━━━━━━━━━━━┳━━━━━━━━━━━━━━━━━━━┳━━━━━━━━━━━━━┳━━━━━━━━━━━━━━━━━━━━┓
┃ Layer (type)          ┃ Output Shape      ┃     Param # ┃ Connected to       ┃
┡━━━━━━━━━━━━━━━━━━━━━━━╇━━━━━━━━━━━━━━━━━━━╇━━━━━━━━━━━━━╇━━━━━━━━━━━━━━━━━━━━┩
│ input_layer           │ (None, 13)        │           0 │ -                  │
│ (InputLayer)          │                   │             │                    │
├───────────────────────┼───────────────────┼─────────────┼────────────────────┤
│ dense (Dense)         │ (None, 128)       │       1,792 │ input_layer[0][0]  │
├───────────────────────┼───────────────────┼─────────────┼────────────────────┤
│ dropout (Dropout)     │ (None, 128)       │           0 │ dense[0][0]        │
├───────────────────────┼───────────────────┼─────────────┼────────────────────┤
│ dense_1 (Dense)       │ (None, 128)       │      16,512 │ dropout[0][0]      │
├───────────────────────┼───────────────────┼─────────────┼────────────────────┤
│ dropout_1 (Dropout)   │ (None, 128)       │           0 │ dense_1[0][0]      │
├───────────────────────┼───────────────────┼─────────────┼────────────────────┤
│ dense_2 (Dense)       │ (None, 128)       │      16,512 │ dropout_1[0][0]    │
├───────────────────────┼───────────────────┼─────────────┼────────────────────┤
│ dropout_2 (Dropout)   │ (None, 128)       │           0 │ dense_2[0][0]      │
├───────────────────────┼───────────────────┼─────────────┼────────────────────┤
│ dense_3 (Dense)       │ (None, 16)        │       2,064 │ dropout_2[0][0]    │
├───────────────────────┼───────────────────┼─────────────┼────────────────────┤
│ dense_4 (Dense)       │ (None, 3)         │         387 │ dropout_2[0][0]    │
├───────────────────────┼───────────────────┼─────────────┼────────────────────┤
│ dense_5 (Dense)       │ (None, 4)         │         516 │ dropout_2[0][0]    │
└───────────────────────┴───────────────────┴─────────────┴────────────────────┘
 Total params: 37,783 (147.59 KB)
 Trainable params: 37,783 (147.59 KB)
 Non-trainable params: 0 (0.00 B)

> model %>% compile(loss = loss_list, loss_weights = loss_weights, 
+     optimizer = optimizer_adam(), metrics = metrics_list)

> history <- model %>% fit(x = xtrain_scaled, y = ytrain_scaled_reshape, 
…
> loss_list <- list()

> loss_weights <- list()

> metrics_list <- list()

> for (i in df_fn_grp_chars$fn_grp) {
+     temp_df_fn_grps <- df_fn_grp_chars[df_fn_grp_chars$fn_grp == 
+         i, ]
+     output[[i]] <- layer_de .... [TRUNCATED] 

> model <- keras_model(inputs = input, outputs = output)

> summary(model)
Model: "functional"
┏━━━━━━━━━━━━━━━━━━━━━━━┳━━━━━━━━━━━━━━━━━━━┳━━━━━━━━━━━━━┳━━━━━━━━━━━━━━━━━━━━┓
┃ Layer (type)          ┃ Output Shape      ┃     Param # ┃ Connected to       ┃
┡━━━━━━━━━━━━━━━━━━━━━━━╇━━━━━━━━━━━━━━━━━━━╇━━━━━━━━━━━━━╇━━━━━━━━━━━━━━━━━━━━┩
│ input_layer           │ (None, 13)        │           0 │ -                  │
│ (InputLayer)          │                   │             │                    │
├───────────────────────┼───────────────────┼─────────────┼────────────────────┤
│ dense (Dense)         │ (None, 64)        │         896 │ input_layer[0][0]  │
├───────────────────────┼───────────────────┼─────────────┼────────────────────┤
│ dropout (Dropout)     │ (None, 64)        │           0 │ dense[0][0]        │
├───────────────────────┼───────────────────┼─────────────┼────────────────────┤
│ dense_1 (Dense)       │ (None, 16)        │       1,040 │ dropout[0][0]      │
├───────────────────────┼───────────────────┼─────────────┼────────────────────┤
│ dense_2 (Dense)       │ (None, 3)         │         195 │ dropout[0][0]      │
├───────────────────────┼───────────────────┼─────────────┼────────────────────┤
│ dense_3 (Dense)       │ (None, 4)         │         260 │ dropout[0][0]      │
└───────────────────────┴───────────────────┴─────────────┴────────────────────┘
 Total params: 2,391 (9.34 KB)
 Trainable params: 2,391 (9.34 KB)
 Non-trainable params: 0 (0.00 B)

> model %>% compile(loss = loss_list, loss_weights = loss_weights, 
+     optimizer = optimizer_adam(), metrics = metrics_list)

> history <- model %>% fit(x = xtrain_scaled, y = ytrain_scaled_reshape, 
…
> loss_list <- list()

> loss_weights <- list()

> metrics_list <- list()

> for (i in df_fn_grp_chars$fn_grp) {
+     temp_df_fn_grps <- df_fn_grp_chars[df_fn_grp_chars$fn_grp == 
+         i, ]
+     output[[i]] <- layer_de .... [TRUNCATED] 

> model <- keras_model(inputs = input, outputs = output)

> summary(model)
Model: "functional"
┏━━━━━━━━━━━━━━━━━━━━━━━┳━━━━━━━━━━━━━━━━━━━┳━━━━━━━━━━━━━┳━━━━━━━━━━━━━━━━━━━━┓
┃ Layer (type)          ┃ Output Shape      ┃     Param # ┃ Connected to       ┃
┡━━━━━━━━━━━━━━━━━━━━━━━╇━━━━━━━━━━━━━━━━━━━╇━━━━━━━━━━━━━╇━━━━━━━━━━━━━━━━━━━━┩
│ input_layer           │ (None, 13)        │           0 │ -                  │
│ (InputLayer)          │                   │             │                    │
├───────────────────────┼───────────────────┼─────────────┼────────────────────┤
│ dense (Dense)         │ (None, 64)        │         896 │ input_layer[0][0]  │
├───────────────────────┼───────────────────┼─────────────┼────────────────────┤
│ dense_1 (Dense)       │ (None, 64)        │       4,160 │ dense[0][0]        │
├───────────────────────┼───────────────────┼─────────────┼────────────────────┤
│ dense_2 (Dense)       │ (None, 64)        │       4,160 │ dense_1[0][0]      │
├───────────────────────┼───────────────────┼─────────────┼────────────────────┤
│ dense_3 (Dense)       │ (None, 16)        │       1,040 │ dense_2[0][0]      │
├───────────────────────┼───────────────────┼─────────────┼────────────────────┤
│ dense_4 (Dense)       │ (None, 3)         │         195 │ dense_2[0][0]      │
├───────────────────────┼───────────────────┼─────────────┼────────────────────┤
│ dense_5 (Dense)       │ (None, 4)         │         260 │ dense_2[0][0]      │
└───────────────────────┴───────────────────┴─────────────┴────────────────────┘
 Total params: 10,711 (41.84 KB)
 Trainable params: 10,711 (41.84 KB)
 Non-trainable params: 0 (0.00 B)

> model %>% compile(loss = loss_list, loss_weights = loss_weights, 
+     optimizer = optimizer_adam(), metrics = metrics_list)

> history <- model %>% fit(x = xtrain_scaled, y = ytrain_scaled_reshape, 
…
> loss_list <- list()

> loss_weights <- list()

> metrics_list <- list()

> for (i in df_fn_grp_chars$fn_grp) {
+     temp_df_fn_grps <- df_fn_grp_chars[df_fn_grp_chars$fn_grp == 
+         i, ]
+     output[[i]] <- layer_de .... [TRUNCATED] 

> model <- keras_model(inputs = input, outputs = output)

> summary(model)
Model: "functional"
┏━━━━━━━━━━━━━━━━━━━━━━━┳━━━━━━━━━━━━━━━━━━━┳━━━━━━━━━━━━━┳━━━━━━━━━━━━━━━━━━━━┓
┃ Layer (type)          ┃ Output Shape      ┃     Param # ┃ Connected to       ┃
┡━━━━━━━━━━━━━━━━━━━━━━━╇━━━━━━━━━━━━━━━━━━━╇━━━━━━━━━━━━━╇━━━━━━━━━━━━━━━━━━━━┩
│ input_layer           │ (None, 13)        │           0 │ -                  │
│ (InputLayer)          │                   │             │                    │
├───────────────────────┼───────────────────┼─────────────┼────────────────────┤
│ dense (Dense)         │ (None, 32)        │         448 │ input_layer[0][0]  │
├───────────────────────┼───────────────────┼─────────────┼────────────────────┤
│ dense_1 (Dense)       │ (None, 32)        │       1,056 │ dense[0][0]        │
├───────────────────────┼───────────────────┼─────────────┼────────────────────┤
│ dense_2 (Dense)       │ (None, 32)        │       1,056 │ dense_1[0][0]      │
├───────────────────────┼───────────────────┼─────────────┼────────────────────┤
│ dense_3 (Dense)       │ (None, 16)        │         528 │ dense_2[0][0]      │
├───────────────────────┼───────────────────┼─────────────┼────────────────────┤
│ dense_4 (Dense)       │ (None, 3)         │          99 │ dense_2[0][0]      │
├───────────────────────┼───────────────────┼─────────────┼────────────────────┤
│ dense_5 (Dense)       │ (None, 4)         │         132 │ dense_2[0][0]      │
└───────────────────────┴───────────────────┴─────────────┴────────────────────┘
 Total params: 3,319 (12.96 KB)
 Trainable params: 3,319 (12.96 KB)
 Non-trainable params: 0 (0.00 B)

> model %>% compile(loss = loss_list, loss_weights = loss_weights, 
+     optimizer = optimizer_adam(), metrics = metrics_list)

> history <- model %>% fit(x = xtrain_scaled, y = ytrain_scaled_reshape, 
…
> loss_list <- list()

> loss_weights <- list()

> metrics_list <- list()

> for (i in df_fn_grp_chars$fn_grp) {
+     temp_df_fn_grps <- df_fn_grp_chars[df_fn_grp_chars$fn_grp == 
+         i, ]
+     output[[i]] <- layer_de .... [TRUNCATED] 

> model <- keras_model(inputs = input, outputs = output)

> summary(model)
Model: "functional"
┏━━━━━━━━━━━━━━━━━━━━━━━┳━━━━━━━━━━━━━━━━━━━┳━━━━━━━━━━━━━┳━━━━━━━━━━━━━━━━━━━━┓
┃ Layer (type)          ┃ Output Shape      ┃     Param # ┃ Connected to       ┃
┡━━━━━━━━━━━━━━━━━━━━━━━╇━━━━━━━━━━━━━━━━━━━╇━━━━━━━━━━━━━╇━━━━━━━━━━━━━━━━━━━━┩
│ input_layer           │ (None, 13)        │           0 │ -                  │
│ (InputLayer)          │                   │             │                    │
├───────────────────────┼───────────────────┼─────────────┼────────────────────┤
│ dense (Dense)         │ (None, 128)       │       1,792 │ input_layer[0][0]  │
├───────────────────────┼───────────────────┼─────────────┼────────────────────┤
│ dense_1 (Dense)       │ (None, 128)       │      16,512 │ dense[0][0]        │
├───────────────────────┼───────────────────┼─────────────┼────────────────────┤
│ dense_2 (Dense)       │ (None, 128)       │      16,512 │ dense_1[0][0]      │
├───────────────────────┼───────────────────┼─────────────┼────────────────────┤
│ dense_3 (Dense)       │ (None, 16)        │       2,064 │ dense_2[0][0]      │
├───────────────────────┼───────────────────┼─────────────┼────────────────────┤
│ dense_4 (Dense)       │ (None, 3)         │         387 │ dense_2[0][0]      │
├───────────────────────┼───────────────────┼─────────────┼────────────────────┤
│ dense_5 (Dense)       │ (None, 4)         │         516 │ dense_2[0][0]      │
└───────────────────────┴───────────────────┴─────────────┴────────────────────┘
 Total params: 37,783 (147.59 KB)
 Trainable params: 37,783 (147.59 KB)
 Non-trainable params: 0 (0.00 B)

> model %>% compile(loss = loss_list, loss_weights = loss_weights, 
+     optimizer = optimizer_adam(), metrics = metrics_list)

> history <- model %>% fit(x = xtrain_scaled, y = ytrain_scaled_reshape, 
…
> loss_list <- list()

> loss_weights <- list()

> metrics_list <- list()

> for (i in df_fn_grp_chars$fn_grp) {
+     temp_df_fn_grps <- df_fn_grp_chars[df_fn_grp_chars$fn_grp == 
+         i, ]
+     output[[i]] <- layer_de .... [TRUNCATED] 

> model <- keras_model(inputs = input, outputs = output)

> summary(model)
Model: "functional"
┏━━━━━━━━━━━━━━━━━━━━━━━┳━━━━━━━━━━━━━━━━━━━┳━━━━━━━━━━━━━┳━━━━━━━━━━━━━━━━━━━━┓
┃ Layer (type)          ┃ Output Shape      ┃     Param # ┃ Connected to       ┃
┡━━━━━━━━━━━━━━━━━━━━━━━╇━━━━━━━━━━━━━━━━━━━╇━━━━━━━━━━━━━╇━━━━━━━━━━━━━━━━━━━━┩
│ input_layer           │ (None, 13)        │           0 │ -                  │
│ (InputLayer)          │                   │             │                    │
├───────────────────────┼───────────────────┼─────────────┼────────────────────┤
│ dense (Dense)         │ (None, 64)        │         896 │ input_layer[0][0]  │
├───────────────────────┼───────────────────┼─────────────┼────────────────────┤
│ dropout (Dropout)     │ (None, 64)        │           0 │ dense[0][0]        │
├───────────────────────┼───────────────────┼─────────────┼────────────────────┤
│ dense_1 (Dense)       │ (None, 64)        │       4,160 │ dropout[0][0]      │
├───────────────────────┼───────────────────┼─────────────┼────────────────────┤
│ dropout_1 (Dropout)   │ (None, 64)        │           0 │ dense_1[0][0]      │
├───────────────────────┼───────────────────┼─────────────┼────────────────────┤
│ dense_2 (Dense)       │ (None, 16)        │       1,040 │ dropout_1[0][0]    │
├───────────────────────┼───────────────────┼─────────────┼────────────────────┤
│ dense_3 (Dense)       │ (None, 3)         │         195 │ dropout_1[0][0]    │
├───────────────────────┼───────────────────┼─────────────┼────────────────────┤
│ dense_4 (Dense)       │ (None, 4)         │         260 │ dropout_1[0][0]    │
└───────────────────────┴───────────────────┴─────────────┴────────────────────┘
 Total params: 6,551 (25.59 KB)
 Trainable params: 6,551 (25.59 KB)
 Non-trainable params: 0 (0.00 B)

> model %>% compile(loss = loss_list, loss_weights = loss_weights, 
+     optimizer = optimizer_adam(), metrics = metrics_list)

> history <- model %>% fit(x = xtrain_scaled, y = ytrain_scaled_reshape, 
…
