…
> loss_weights <- list()

> metrics_list <- list()

> for (i in df_fn_grp_chars$fn_grp) {
+   temp_df_fn_grps <- df_fn_grp_chars[df_fn_grp_chars$fn_grp == i, ]
+   output[[i]] <- layer_dense(x, 
+       .... [TRUNCATED] 

> # Define the model
> model <- keras_model(inputs = input, outputs = output)

> # View the model summary
> summary(model)
Model: "functional"
┏━━━━━━━━━━━━━━━━┳━━━━━━━━━━━━━━━┳━━━━━━━━┳━━━━━━━━━━━━━━━┓
┃                ┃               ┃  Param ┃               ┃
┃ Layer (type)   ┃ Output Shape  ┃      # ┃ Connected to  ┃
┡━━━━━━━━━━━━━━━━╇━━━━━━━━━━━━━━━╇━━━━━━━━╇━━━━━━━━━━━━━━━┩
│ input_layer    │ (None, 12)    │      0 │ -             │
│ (InputLayer)   │               │        │               │
├────────────────┼───────────────┼────────┼───────────────┤
│ dense (Dense)  │ (None, 128)   │  1,664 │ input_layer[… │
├────────────────┼───────────────┼────────┼───────────────┤
│ dropout        │ (None, 128)   │      0 │ dense[0][0]   │
│ (Dropout)      │               │        │               │
├────────────────┼───────────────┼────────┼───────────────┤
│ dense_1        │ (None, 128)   │ 16,512 │ dropout[0][0] │
│ (Dense)        │               │        │               │
├────────────────┼───────────────┼────────┼───────────────┤
│ dropout_1      │ (None, 128)   │      0 │ dense_1[0][0] │
│ (Dropout)      │               │        │               │
├────────────────┼───────────────┼────────┼───────────────┤
│ dense_2        │ (None, 128)   │ 16,512 │ dropout_1[0]… │
│ (Dense)        │               │        │               │
├────────────────┼───────────────┼────────┼───────────────┤
│ dropout_2      │ (None, 128)   │      0 │ dense_2[0][0] │
│ (Dropout)      │               │        │               │
├────────────────┼───────────────┼────────┼───────────────┤
│ dense_3        │ (None, 128)   │ 16,512 │ dropout_2[0]… │
│ (Dense)        │               │        │               │
├────────────────┼───────────────┼────────┼───────────────┤
│ dropout_3      │ (None, 128)   │      0 │ dense_3[0][0] │
│ (Dropout)      │               │        │               │
├────────────────┼───────────────┼────────┼───────────────┤
│ dense_4        │ (None, 16)    │  2,064 │ dropout_3[0]… │
│ (Dense)        │               │        │               │
├────────────────┼───────────────┼────────┼───────────────┤
│ dense_5        │ (None, 3)     │    387 │ dropout_3[0]… │
│ (Dense)        │               │        │               │
├────────────────┼───────────────┼────────┼───────────────┤
│ dense_6        │ (None, 4)     │    516 │ dropout_3[0]… │
│ (Dense)        │               │        │               │
└────────────────┴───────────────┴────────┴───────────────┘
 Total params: 54,167 (211.59 KB)
 Trainable params: 54,167 (211.59 KB)
 Non-trainable params: 0 (0.00 B)

> # Compile the model
> model %>% compile(
+   loss = loss_list,
+   loss_weights = loss_weights, 
+   optimizer = optimizer_adam(),
+   metrics = met .... [TRUNCATED] 
…
